Best_Model_3.tflite (tflite, 327224 bytes, 8 tensors)

sequential_525/2HiddenLayer_96Neurons/Selu f4 [96, 352]
0	0x3c54d083	0.012989166
1	0x3d63a30e	0.055575423
2	0x3d031e54	0.032011345
3	0xbe891502	-0.2677384
4	0xbdba4dd0	-0.09096873
5	0x3cb607d0	0.022220522
6	0x3dce6890	0.100785375
7	0x3e1f00d7	0.15527664
8	0xbe0cb492	-0.13740757
9	0x3e142225	0.1446615
10	0x3ca6f77e	0.020381685
11	0x3df01cac	0.11724219
12	0x3e459131	0.19293667
13	0xbe013abe	-0.12620065
14	0xbdc16706	-0.09443478
15	0xbd3d1c35	-0.04616948
16	0x3c7a4f0b	0.015277634
17	0xbdaa121a	-0.08304234
18	0xbdd0b64e	-0.10191022
19	0x3d467e88	0.048460513
20	0xbd838f22	-0.06423785
21	0xbd8fe1a2	-0.07025458
22	0x3d72e9c1	0.059304956
23	0xbe00e057	-0.12585579
24	0x3de3f8e2	0.11131455
25	0xbc3f32a5	-0.011669789
26	0xbbaa7c72	-0.0052028233
27	0xbc86b45c	-0.016443424
28	0xbe11a9c8	-0.14224923
29	0x3de2ea3a	0.110798314
30	0xbdb11ce0	-0.086480856
31	0xbd1a7379	-0.03770778
32	0x3dca916d	0.09891019
33	0xbc7431dc	-0.0149044655
34	0x3cc47d78	0.02398561
35	0xbde9da3d	-0.11418579
36	0xbd03c9f1	-0.03217501
37	0x3df82d1e	0.121179804
38	0x3e46fd3c	0.19432539
39	0xbded27fd	-0.11579893
40	0xbd12ad50	-0.035809815
41	0x3d83f962	0.0644405
42	0x3d49ebb9	0.04929707
43	0x3e2a8931	0.16653897
44	0xbd170533	-0.036870193
45	0x3d01fe03	0.031736385
46	0xbd836e94	-0.064175755
47	0xbd864cb0	-0.06557596
48	0x3cf8ac0a	0.030355472
49	0x3c986b16	0.01860575
50	0xbe5a6e28	-0.21331084
51	0x3df59df6	0.11993019
52	0xbe31458d	-0.17311688
53	0x3bdf2c2f	0.006810687
54	0xbe543c60	-0.20726156
55	0x3e36fe09	0.17870344
56	0xbcc81a0d	-0.024426484
57	0x3dd305fa	0.10303874
58	0xbd92ea93	-0.07173648
59	0x3e3b7746	0.18307218
60	0x3d1601f0	0.03662294
61	0x3e2ae73c	0.16689771
62	0x3e43866a	0.19094244
63	0xbdb87e21	-0.09008432
64	0xbd700c77	-0.058605637
65	0x3d59b548	0.0531514
66	0x3d8993cb	0.067176424
67	0xbd17f38a	-0.03709749
68	0x3cf40e3e	0.029791947
69	0x3dc6ee49	0.09713418
70	0xbdd19f3f	-0.10235452
71	0xbe87735a	-0.26455194
72	0xbe53ef61	-0.20696785
73	0x3d723574	0.059133008
74	0xbb9950dc	-0.0046788286
75	0xbdaaf507	-0.083475165
76	0xbe37ffcf	-0.17968677
77	0xbd560b55	-0.0522569
78	0x3ddcafcd	0.10775719
79	0x3cb5de94	0.02220086
80	0xbcd99732	-0.026561353
81	0x3dd25a82	0.10271169
82	0xbc545bfb	-0.012961383
83	0xbd9850f1	-0.07437313
84	0xbcd7e9fe	-0.026356693
85	0xbbf46577	-0.0074583846
86	0xbe14d93f	-0.14535998
87	0x3e09336c	0.13398522
88	0x3d98e3e3	0.07465341
89	0xbd8a07c0	-0.067397594
90	0xbc4ba62c	-0.012429755
91	0x3d2d8d01	0.0423708
92	0xbc146617	-0.009057543
93	0x3dd8469c	0.10560343
94	0xbd082f56	-0.033248268
95	0x3ce53ccc	0.027983092
96	0x3c8c23f8	0.017106995
97	0x3db7a0c4	0.089662105
98	0x3e47f330	0.19526362
99	0xbd7266ba	-0.05918
100	0x3da5d6b0	0.08097589
101	0x3d14d3a5	0.036334652
102	0x3e25ffb9	0.16210832
103	0xbe15d1e8	-0.14630854
104	0x3e15abc9	0.14616312
105	0x3d8f8829	0.07008392
106	0xbe15042b	-0.14552371
107	0x3b47edef	0.003050681
108	0x3e576394	0.2103408
109	0xb99b3844	-0.00029605825
110	0x3e237929	0.15964188
111	0x3d79df60	0.061004043
112	0xbe4b0e96	-0.19829783
113	0x3c13af6c	0.009013992
114	0x3ccac247	0.024750842
115	0x3d91e0df	0.07122969
116	0x3e84fcaa	0.25974017
117	0x3e10b464	0.14131314
118	0x3c6fac3a	0.014628464
119	0xbca067ae	-0.019580688
120	0xbda4fdb6	-0.08056204
121	0x3dba259d	0.090892054
122	0xbe2750a9	-0.16339363
123	0xbe535e95	-0.20641549
124	0xbc59f4dd	-0.013303009
125	0xbca72e73	-0.02040789
126	0x3d2e70ed	0.042588163
127	0x3d880687	0.0664187
128	0xbe6f783e	-0.23385713
129	0xbda34806	-0.07972722
130	0xbdbb9199	-0.0915863
131	0xbd91d6b0	-0.071210265
132	0x3e10d344	0.14143091
133	0xbe4bc653	-0.19899873
134	0x3cd14918	0.02554755
135	0xbd7c24ef	-0.06155866
136	0x3e6b8522	0.23000005
137	0x3da7ed79	0.08199591
138	0x3b341ded	0.0027483657
139	0xbba99ca8	-0.0051761456
140	0x3dcef0fe	0.10104559
141	0x3cb0657d	0.021532768
142	0xbe06fe3f	-0.13182925
143	0xbe239989	-0.15976538
144	0xbe261655	-0.16219456
145	0x3969cc11	0.00022296632
146	0x3db9d99b	0.09074708
147	0xbcb23298	-0.02175264
148	0x3e1d9b1c	0.15391201
149	0xbe010b54	-0.12601978
150	0xbdd976d8	-0.10618371
151	0xbdccb307	-0.09995084
152	0x3c8204b8	0.01587139
153	0xbd1e4468	-0.038639456
154	0xbe599121	-0.21246769
155	0x3e059d89	0.13048376
156	0x3d9ee073	0.07757654
157	0xbe329843	-0.17440896
158	0xbcdc716d	-0.026909554
159	0x3d827ab1	0.06371058
160	0xbdb16ab5	-0.08662931
161	0x3d34064d	0.04395132
162	0x3d0fa25a	0.03506694
163	0x3bdf24d4	0.00680981
164	0x3bede8fa	0.007260439
165	0xbe226a39	-0.15860833
166	0x3d2045bb	0.039129
167	0x3dbe2484	0.092843086
168	0x3d0196c6	0.03163793
169	0x3e01ec57	0.12687813
170	0xbe23a90e	-0.15982458
171	0x3e4afd44	0.19823176
172	0xbe3d97a3	-0.18514876
173	0xbd9a9e92	-0.07549776
174	0xbe0fe950	-0.14053845
175	0xbb60bf9e	-0.00342939
176	0x3d07a87e	0.03311967
177	0x3ddbb9ca	0.10728796
178	0x3ddc38a3	0.1075299
179	0x3d10dd4b	0.03536729
180	0xbd56bb77	-0.052424874
181	0x3c5f6735	0.013635446
182	0xbdc41e5a	-0.095761016
183	0xbdb98c53	-0.09059968
184	0x3e732265	0.23743589
185	0x3cd74ff0	0.026283234
186	0xbe1e93da	-0.15486088
187	0xbe094c4a	-0.13408008
188	0xbe6dfd02	-0.23241046
189	0xbc9baac2	-0.019002322
190	0x3e00a84b	0.12564199
191	0x3cfbcefd	0.030738348
192	0x3e2aa849	0.16665758
193	0xbd417c2f	-0.04723757
194	0x3e4cc69b	0.19997637
195	0x3c90d3d2	0.017679129
196	0x3d100eb7	0.035170283
197	0x3d92e781	0.07173062
198	0xbdcf68c9	-0.10127408
199	0xbe623f95	-0.22094567
200	0xbe8f2bc6	-0.27963084
201	0x3e0d0829	0.13772644
202	0xbd2a4c65	-0.04157676
203	0xbce78761	-0.028262796
204	0x3d034c54	0.032055214
205	0x3d6a3a11	0.057184283
206	0xbe098196	-0.1342834
207	0xbceba4f6	-0.028765183
208	0xbda205de	-0.07911275
209	0x3c8d4ef9	0.017249571
210	0xbe038a6b	-0.12845771
211	0xbd9c93b3	-0.07645359
212	0x3e14ec36	0.14543232
213	0xbe634f62	-0.22198251
214	0x3d0a2fef	0.03373712
215	0x3df1a0c9	0.117982455
216	0xbdb56431	-0.088570006
217	0xbd608c5c	-0.054821357
218	0x3e33652d	0.17519064
219	0x3dc5fd93	0.09667506
220	0xbd4163e1	-0.047214393
221	0xbbde92ef	-0.006792418
222	0x3d95a5cf	0.07307016
223	0x3c9926a3	0.018695181
224	0xbe1aa135	-0.15100558
225	0x3db3e756	0.08784358
226	0x3cded710	0.02720216
227	0x3b83ad56	0.004018466
228	0xbe1e8199	-0.15479125
229	0x3d9a964e	0.075481996
230	0x3e21d126	0.1580244
231	0x3e10c7d6	0.14138731
232	0xbbf8ecdc	-0.007596595
233	0x3e301c73	0.17198353
234	0xbd15f39a	-0.03660927
235	0x3e2c6902	0.16836932
236	0x3d82de64	0.06390074
237	0x3dcf9d5e	0.10137437
238	0xbd1bdc82	-0.03805209
239	0x3e052934	0.13003999
240	0x3d8d8da9	0.06911785
241	0x3d1260a3	0.03573669
242	0x3d5c6d59	0.05381522
243	0xbe13a86d	-0.14419718
244	0xbd06fa64	-0.032953635
245	0xbd09b130	-0.033616245
246	0x3db7d7da	0.08976717
247	0xbbaf4838	-0.0053491853
248	0x3d464649	0.048406873
249	0xbdd9a338	-0.10626835
250	0x3bc4d2f3	0.0060065924
251	0x3da2ac9a	0.079430774
252	0xbe3e4495	-0.1858085
253	0xbcf36d96	-0.02971534
254	0xbac04bea	-0.0014671062
255	0x3e53ab33	0.20670776

sequential_525/2HiddenLayer_96Neurons/Selu1 f4 [96]
0	0x3d5a2159	0.05325446
1	0xbe2adb6f	-0.1668527
2	0x3d85ba76	0.06529705
3	0xbd333449	-0.043751035
4	0xbd912f11	-0.07089055
5	0xbcb98859	-0.022648023
6	0xbe16fa41	-0.14743902
7	0xbcd84988	-0.02640225
8	0x3dff4643	0.12464573
9	0x3dcaf680	0.099102974
10	0x3c973a37	0.018460376
11	0xbd501e24	-0.050809994
12	0xbe02da45	-0.12778576
13	0x3cc6e687	0.024279846
14	0x3d9882e8	0.074468434
15	0xbcefe907	-0.02928592
16	0xbe8aa113	-0.27076015
17	0xbe32b17e	-0.1745052
18	0xbd26c826	-0.04071822
19	0x3e094c99	0.13408126
20	0x3e26f4dc	0.16304344
21	0x3dd8329f	0.1055653
22	0x3d2ccf1b	0.0421897
23	0x3d840170	0.06445587
24	0xbe058c3c	-0.13041776
25	0xbd989718	-0.07450694
26	0xbc285a3e	-0.010275422
27	0xbe328001	-0.17431642
28	0xbe493a6b	-0.19651191
29	0xbcaf9765	-0.021434495
30	0x3c333d13	0.010939854
31	0x3d99dedb	0.075132094
32	0x3d4f7cba	0.050656058
33	0xbe332cb6	-0.17497525
34	0x3d047a8b	0.03234343
35	0xbd12173d	-0.035666693
36	0x3d977976	0.07396214
37	0xbdbaa157	-0.091128044
38	0xbe61a1b8	-0.22034347
39	0x3d2c0d3d	0.042004813
40	0x3e3c93bb	0.1841573
41	0x3de284d8	0.11060494
42	0xbdd6fdc8	-0.10497624
43	0xbcf460b9	-0.029831277
44	0x3dfd5961	0.12370563
45	0x3dc419eb	0.09575256
46	0xbc8fae6b	-0.017539224
47	0x3e262dba	0.16228381
48	0x3e4baea5	0.1989084
49	0xbcd627a2	-0.026141945
50	0x3d7abbf1	0.06121439
51	0xbe0f882e	-0.14016792
52	0x3cf365bf	0.029711602
53	0xbd2b1288	-0.04176572
54	0x3df5b747	0.11997848
55	0xbb9db564	-0.004812883
56	0xbe51d2d2	-0.20490578
57	0xbd612fd0	-0.05497724
58	0x3d700722	0.058600552
59	0xbe1d3cf8	-0.15355289
60	0x3d2d32b9	0.0422847
61	0x3b35d1d5	0.0027743478
62	0xbdef1652	-0.11674179
63	0xbd8fca2e	-0.070209846
64	0xbd5218f5	-0.051293332
65	0xbdc6e406	-0.09711461
66	0x3da8d93a	0.08244558
67	0x3dd7c64d	0.1053587
68	0x3c499f4b	0.012306045
69	0xbddf36e0	-0.108991385
70	0x3d146f39	0.036238883
71	0x3e6ada59	0.22934856
72	0x3d55b0d2	0.052170582
73	0xbdbff439	-0.09372754
74	0xbe089fb9	-0.1334218
75	0x3d19956f	0.037496027
76	0xbda66e13	-0.08126464
77	0xbd6508bc	-0.055916533
78	0x3cebb35d	0.02877205
79	0xbdcbd7d1	-0.09953273
80	0xbd2cbb46	-0.042170785
81	0xbe000814	-0.12503082
82	0xbe07d37f	-0.13264273
83	0x3e1d5e4e	0.15368006
84	0xbe107d4b	-0.14110295
85	0xbcad48f0	-0.021152943
86	0xbe3bb57c	-0.1833095
87	0x3df23e73	0.118283175
88	0x3e2da953	0.16959123
89	0xbc52ecd9	-0.012873852
90	0x3c10d149	0.00883896
91	0xbe188dac	-0.14897794
92	0xba28f9a4	-0.0006445891
93	0xbb7a8278	-0.0038224738
94	0xbe130df9	-0.14360799
95	0xbeda457c	-0.42631137

sequential_525/OutputLayer/BiasAdd/ReadVariableOp f4 [7]
0	0xbe0a4635	-0.13503344
1	0xbe9cf9ce	-0.30659336
2	0xbebb4fc1	-0.36584285
3	0x3e2ddc18	0.1697849
4	0xbcfcf107	-0.03087665
5	0xbe3d4f29	-0.18487228
6	0xbe6c5834	-0.23080522

sequential_525/2HiddenLayer_96Neurons/BiasAdd/ReadVariableOp f4 [96]
0	0x3d4f9ac1	0.050684694
1	0xbe229ccf	-0.1588013
2	0x3d7e8cfe	0.06214618
3	0xbd2a8e8d	-0.041639853
4	0xbd8a2d97	-0.06746977
5	0xbcb09470	-0.021555156
6	0xbe0fb135	-0.14032443
7	0xbccdd9b4	-0.025128223
8	0x3df2f4d2	0.11863102
9	0x3dc12b45	0.09432081
10	0x3c8fee15	0.017569581
11	0xbd46133b	-0.048358183
12	0xbdf913a8	-0.12161952
13	0x3cbd4d7b	0.023108235
14	0x3d9126e9	0.070875
15	0xbce45562	-0.027872745
16	0xbe83f091	-0.25769475
17	0xbe2a1211	-0.16608454
18	0xbd1ebbde	-0.038753383
19	0x3e02ac85	0.12761123
20	0x3e1ee66c	0.15517586
21	0x3dcdc3e6	0.1004713
22	0x3d24785f	0.040153857
23	0x3d7b4582	0.061345585
24	0xbdfe34ff	-0.12412452
25	0xbd913a20	-0.070911646
26	0xbc203a8f	-0.009779586
27	0xbe29e2f8	-0.16590488
28	0xbe3f849e	-0.18702933
29	0xbca71e4a	-0.020400185
30	0x3c2a96ea	0.010411957
31	0x3d927212	0.071506634
32	0x3d45799b	0.048211675
33	0xbe2a8757	-0.1665319
34	0x3cfc2c08	0.030782714
35	0xbd0b0a8f	-0.033945616
36	0x3d902a46	0.07039313
37	0xbdb19fdf	-0.08673071
38	0xbe56be75	-0.20971091
39	0x3d23bfdc	0.039977893
40	0x3e337a36	0.17527089
41	0x3dd7969f	0.105267756
42	0xbdcc9df6	-0.09991066
43	0xbce895e3	-0.028391784
44	0x3df11fb8	0.11773628
45	0x3dbaa373	0.09113207
46	0xbc88bf80	-0.016692877
47	0x3e1e28e6	0.15445289
48	0x3e41da87	0.18931018
49	0xbccbd226	-0.02488048
50	0x3d6ea296	0.058260523
51	0xbe089b1c	-0.1334042
52	0x3ce7a706	0.028277885
53	0xbd22d140	-0.039750338
54	0x3de9dbea	0.114188984
55	0xbb961932	-0.0045806402
56	0xbe47b2d7	-0.19501816
57	0xbd56520c	-0.05232434
58	0x3d647209	0.055772815
59	0xbe15a695	-0.14614327
60	0x3d24d72e	0.040244274
61	0x3b2d0bca	0.0026404732
62	0xbde38cd7	-0.111108474
63	0xbd88d9ed	-0.06682191
64	0xbd47f598	-0.0488182
65	0xbdbd4b19	-0.09242839
66	0x3da0b36b	0.07846721
67	0x3dcd5cce	0.10027467
68	0x3c3fe4a0	0.011712223
69	0xbdd4717a	-0.103732064
70	0x3d0d4597	0.034490194
71	0x3e5f852d	0.21828146
72	0x3d4b6111	0.049653117
73	0xbdb6b0fd	-0.089204766
74	0xbe0207fd	-0.1269836
75	0x3d122c31	0.035686675
76	0xbd9e6624	-0.077343255
77	0xbd59fb71	-0.05321831
78	0x3ce053b8	0.02738367
79	0xbdc201b7	-0.09472983
80	0xbd24657f	-0.040135857
81	0xbdf3b4f8	-0.118997514
82	0xbe01459e	-0.12624213
83	0x3e15c64f	0.1462643
84	0xbe098465	-0.13429411
85	0xbca4ec53	-0.02013222
86	0xbe32a6b0	-0.17446399
87	0x3de68dfa	0.11257549
88	0x3e25480f	0.1614077
89	0xbc48bf42	-0.012252631
90	0x3c09d455	0.00841244
91	0xbe113128	-0.14178908
92	0xba20d244	-0.00061348476
93	0xbb6e6be3	-0.0036380223
94	0xbe0bf563	-0.13667826
95	0xbecfbd25	-0.40573993

sequential_525/1HiddenLayer_352Neurons/BiasAdd/ReadVariableOp f4 [352]
0	0x3d54f2a3	0.05198921
1	0x3bfae078	0.0076561533
2	0xbd8b75ec	-0.06809601
3	0x3cb19ebb	0.021682134
4	0x3d32491b	0.04352675
5	0xbd1c6514	-0.038182333
6	0xbde70bb8	-0.11281532
7	0x3e1d5917	0.15366016
8	0x3db7425f	0.08948206
9	0xba2531e2	-0.00063016836
10	0x3d8491f0	0.06473148
11	0x3da53d90	0.08068383
12	0xbd8705cd	-0.06592903
13	0x3d3c3cbf	0.04595637
14	0x3d4c7249	0.04991368
15	0x3d3f499e	0.046701066
16	0xbd52ba9e	-0.051447503
17	0x3c27eac1	0.010248841
18	0xbc86b74f	-0.01644483
19	0xbe2638f3	-0.16232662
20	0x3b2c32f0	0.0026275478
21	0x3da02c31	0.07820929
22	0x3d9e2d0a	0.07723434
23	0xbe034a3b	-0.12821285
24	0xbbf399a6	-0.007434088
25	0xbd92bb5c	-0.07164642
26	0x3e29ac1e	0.16569564
27	0xbc916fa4	-0.01775343
28	0xb9cd7af8	-0.00039192266
29	0xbcaaa61b	-0.020831158
30	0x3ca2a9de	0.01985639
31	0xbd47288c	-0.048622653
32	0xbbaf57ab	-0.005351027
33	0xbd9f9441	-0.07791949
34	0x3d9c6ce0	0.07637954
35	0xbdc39c3f	-0.09551286
36	0xbcf3ab36	-0.029744726
37	0x3d792206	0.060823463
38	0xbd0b5e7c	-0.034025654
39	0x3db2839c	0.08716509
40	0xbd1bde90	-0.03805405
41	0xbdab3199	-0.083590694
42	0xbd9f3b94	-0.077750355
43	0xbd2fcc23	-0.04291929
44	0xbdf5fedd	-0.12011502
45	0xbdec774f	-0.11546194
46	0xbcbfab97	-0.02339725
47	0x3c5c35f8	0.0134406015
48	0x3c223928	0.009901322
49	0x3b13c97a	0.002255051
50	0xbe15d3e7	-0.14631616
51	0xbc6e54aa	-0.014546553
52	0x3ce6d42a	0.02817734
53	0x3b963bef	0.0045847814
54	0xbd1392c5	-0.036028642
55	0xbd6a4115	-0.057190973
56	0x3d1c41c5	0.03814866
57	0xbbc604cb	-0.006043052
58	0x3e034a11	0.12821223
59	0x3c62c787	0.013841516
60	0xbe3bd562	-0.18343118
61	0xbca09fb1	-0.019607397
62	0x3c868b78	0.016423926
63	0xbdcdc6bd	-0.10047672
64	0x3c1d1a6c	0.009588819
65	0xbce48dd3	-0.027899658
66	0x3ceb6407	0.02873422
67	0xbd98801d	-0.07446311
68	0x3c4e7c5e	0.012602894
69	0x3d4acd71	0.04951233
70	0x3d2b66c5	0.041846056
71	0xbc8f0497	-0.017458243
72	0xbd999e7d	-0.07500932
73	0x3d0d4182	0.0344863
74	0xbdefa883	-0.11702063
75	0x3d5d671b	0.054053407
76	0x3c479e62	0.0121837575
77	0xbdc13e4e	-0.09435712
78	0x3cb29d9e	0.021803673
79	0xbda1c1df	-0.07898306
80	0xbd52b57d	-0.051442612
81	0xbb535048	-0.0032243896
82	0xbd120939	-0.035653327
83	0xbd09fcbb	-0.03368829
84	0x3cae8c13	0.021307027
85	0x3d468877	0.048469987
86	0x3d1059ba	0.03524182
87	0xbc59f3b5	-0.013302733
88	0xbde489b0	-0.11159074
89	0x39ad478a	0.00033050432
90	0x3d78a8c1	0.06070781
91	0x3c37169c	0.011174824
92	0xbd84349e	-0.064553484
93	0x3c826b16	0.015920203
94	0xbb2bc8e3	-0.0026212267
95	0xbc024d6c	-0.007953029
96	0xbd537505	-0.05162527
97	0x3d26e76e	0.040748052
98	0x3d8028e8	0.06257802
99	0x3cf653f5	0.03006933
100	0x3cb17f5d	0.021667177
101	0x3d08bdf9	0.033384297
102	0xbba1809a	-0.0049286606
103	0xbe126455	-0.14296086
104	0x3d999e37	0.0750088
105	0xbc2e14d1	-0.01062508
106	0xbdade3a9	-0.08490688
107	0xbdbdf23c	-0.09274718
108	0xbcfd55b3	-0.030924654
109	0x3d692cf6	0.056927644
110	0xbd61684b	-0.055031102
111	0x3dcccede	0.10000394
112	0xbc86a955	-0.016438166
113	0xbd95c892	-0.073136464
114	0xbd87086c	-0.06593403
115	0xbcb74462	-0.022371475
116	0xbd6623d7	-0.056186523
117	0xbcfb5af5	-0.03068302
118	0x3dbffa50	0.09373915
119	0xbca8d3c1	-0.020608785
120	0x3dbe8201	0.0930214
121	0xbd8c6876	-0.06855862
122	0xbdc4f2af	-0.09616601
123	0xbdc25b1e	-0.094900355
124	0xbc31349e	-0.010815768
125	0x3df2db93	0.11858287
126	0xbd434ee6	-0.047682665
127	0xbdb35ed1	-0.08758319
128	0xbdc7696b	-0.09736904
129	0xbd947705	-0.07249264
130	0xbdec17d6	-0.11527984
131	0xba88d1ac	-0.0010438464
132	0x3c94271f	0.01808506
133	0xbde6a43b	-0.11261793
134	0xbd9214c1	-0.07132865
135	0xbd7e36b2	-0.06206388
136	0xbc948d10	-0.01813367
137	0xbc91c938	-0.017796144
138	0xbdd74fe1	-0.105132826
139	0x3de2157b	0.11039253
140	0x3d4799dc	0.048730716
141	0x3da69179	0.081332155
142	0xbe3946aa	-0.18093362
143	0x3c2f87dd	0.010713545
144	0x3d9e2850	0.07722533
145	0xbdb94b9d	-0.09047625
146	0xbc1088d8	-0.008821689
147	0x3c08b720	0.008344442
148	0x3d0a0fb4	0.033706382
149	0x3cc24922	0.023716513
150	0xbcab629d	-0.020921046
151	0x3dd5eaf8	0.10445207
152	0xbbf79ce6	-0.0075565455
153	0xbc28aa4f	-0.010294511
154	0xbdb5741b	-0.08860036
155	0xbdacade1	-0.08431602
156	0xbc0cad8c	-0.008586299
157	0xbcb30479	-0.021852719
158	0xbd7d8e99	-0.06190357
159	0x3d755377	0.05989405
160	0xbd247e40	-0.040159464
161	0x3cad9b40	0.021192193
162	0x3d5dad13	0.054120135
163	0x3d7fa244	0.062410608
164	0x3d0b78c8	0.034050733
165	0xbe01d358	-0.12678277
166	0x3d711a48	0.058862954
167	0x3cfbe84d	0.030750418
168	0xbd974ec1	-0.07388068
169	0x3dee67ae	0.11640869
170	0x3dbfea24	0.09370831
171	0xba0258bc	-0.0004972329
172	0xbd084df1	-0.033277456
173	0xbdc921c2	-0.09820892
174	0xbdc2db9c	-0.095145434
175	0xbd860f46	-0.06545882
176	0xbd851e4a	-0.06499918
177	0x3dca192e	0.09868084
178	0x3cf40cfe	0.029791351
179	0xbe655d34	-0.22398835
180	0x3c915378	0.017739996
181	0x3d5a6bc1	0.05332542
182	0xbdbe1c83	-0.09282782
183	0xbaa66e25	-0.001269762
184	0x3e0308ca	0.12796322
185	0xbcbcbdd9	-0.023039745
186	0xbe0cbe18	-0.1374439
187	0x3e0149a8	0.12625754
188	0xbdd14266	-0.102177426
189	0xbdb08ae2	-0.0862024
190	0xbdaa54fd	-0.083169915
191	0xbe510742	-0.20412925
192	0xbc8239f8	-0.015896782
193	0x3d6d4c37	0.057934012
194	0x3d4bc88d	0.049751807
195	0xbdb0062e	-0.08594929
196	0xbba48915	-0.0050212243
197	0x3c8afd38	0.016966447
198	0x3d8fcc2a	0.07021363
199	0xbcbea463	-0.023271745
200	0xbdd78c6a	-0.10524829
201	0x3c98c62c	0.018649183
202	0x3e047e32	0.12938765
203	0xbdef570b	-0.11686524
204	0x3ce6c827	0.028171612
205	0x3e0e30b9	0.13885774
206	0x3d1296e9	0.03578845
207	0xbcd83c4e	-0.026395943
208	0xbdbc525c	-0.09195396
209	0x3d126249	0.035738263
210	0xbd2988e0	-0.0413903
211	0xbcc14759	-0.023593592
212	0xbd6efd53	-0.058347058
213	0xbc055f52	-0.008140402
214	0xbd9f54ff	-0.077798836
215	0xbc47810c	-0.012176763
216	0xbcbc0fbf	-0.022956727
217	0xbdc16c6b	-0.09444507
218	0xbd934ac8	-0.07191998
219	0xbd292697	-0.041296568
220	0x3c998bca	0.018743414
221	0xbd53acbf	-0.051678415
222	0xbdcfad42	-0.10140468
223	0x3d4ef8c1	0.0505302
224	0xbd83ca53	-0.06435075
225	0xbdbad417	-0.09122484
226	0xbcbf6402	-0.023363117
227	0xbd1a83bd	-0.03772329
228	0xbda011df	-0.07815909
229	0xbd33dfe8	-0.043914706
230	0x3ddd7ebb	0.108151875
231	0x3d365aaf	0.044520076
232	0x3e237151	0.15961196
233	0x3d657481	0.05601931
234	0x3ba7d5f4	0.0051219407
235	0x3da334c0	0.07969046
236	0xbce56331	-0.0280014
237	0xbdcb8a01	-0.099384315
238	0x3b8ce336	0.0042995466
239	0x3e04b33a	0.12958995
240	0x3df0b996	0.11754148
241	0x3e117efe	0.142086
242	0x3cbd06fa	0.023074616
243	0xbe1d5d7d	-0.15367694
244	0xbdd48405	-0.10376743
245	0xbdabc761	-0.08387638
246	0xbc94c086	-0.018158209
247	0xbdd74aa2	-0.10512282
248	0xbd70410b	-0.05865578
249	0xbd5c032d	-0.053713966
250	0xbd8dda27	-0.06926375
251	0x3e017049	0.1264049
252	0x3e06b48b	0.13154809
253	0xbc8412c7	-0.016122235
254	0xbe029053	-0.12750368
255	0xbd6bb92d	-0.057549644

sequential_525/1HiddenLayer_352Neurons/MatMul f4 [352, 34]
0	0x3dd52612	0.10407652
1	0x3d795f6e	0.060882024
2	0x3da62422	0.081123605
3	0x3da5b892	0.080918446
4	0x3d23f66f	0.04002994
5	0x3acfbe93	0.0015849642
6	0xbd67c135	-0.05658074
7	0xbceb3b2f	-0.028714744
8	0x3daa70af	0.08322274
9	0xbe1735ee	-0.14766666
10	0xbe5dc52e	-0.2165725
11	0x3ddccc9b	0.10781213
12	0xbe36189d	-0.17782827
13	0xbd85f873	-0.065415286
14	0x3e32ecaa	0.17473093
15	0x3c03644f	0.008019521
16	0xbdb3df65	-0.087828435
17	0xbe2a83fe	-0.16651914
18	0x3d2a47b1	0.041572277
19	0x3cbd32b4	0.023095466
20	0x3d26c193	0.04071195
21	0xbdf2ee85	-0.118619
22	0xbd03330b	-0.0320311
23	0xbd2ae609	-0.041723285
24	0x3d6a32df	0.05717742
25	0xbdea284e	-0.11433469
26	0x3d7e1e99	0.0620409
27	0xbdac1906	-0.0840321
28	0xbce80a53	-0.028325235
29	0x3bf13415	0.007360945
30	0x3d9da757	0.07697933
31	0x3cd7148a	0.026254911
32	0xbdd83b6e	-0.1055821
33	0x3cdc0217	0.026856465
34	0x3d5ad127	0.05342212
35	0xbd930176	-0.07178013
36	0xbda8ac73	-0.08236017
37	0xbe0fafa9	-0.14031853
38	0xbd190ee4	-0.037367716
39	0x3cf8fca4	0.030393906
40	0x3e63631a	0.22205773
41	0xbd95294d	-0.07283268
42	0x3cd2c42f	0.025728313
43	0xbd8e514c	-0.069491
44	0xbe5d8664	-0.21633297
45	0x3d7edf28	0.062224537
46	0x3df66217	0.12030428
47	0xbd85be45	-0.06530432
48	0x3db3da77	0.08781903
49	0x3e1ea618	0.15493047
50	0x3dfe4e15	0.12417237
51	0xbdc9dc9c	-0.09856531
52	0x3e370ae0	0.17875242
53	0xbc1f9c60	-0.009741873
54	0x3d907b77	0.07054799
55	0xba443bac	-0.00074856984
56	0x3e20bba3	0.15696578
57	0x3ca57096	0.020195287
58	0xbdfaed5a	-0.122523025
59	0xbd926a87	-0.07149225
60	0x3db4c05b	0.088257514
61	0xbe451da0	-0.19249582
62	0x3e2b3525	0.16719492
63	0xbe1d89af	-0.15384553
64	0xbda6a905	-0.08137707
65	0xbcfafc7a	-0.030637968
66	0x3d5910e3	0.05299462
67	0x3deb5f3c	0.11492774
68	0xbdab17e8	-0.08354169
69	0x3dc72abf	0.0972495
70	0xbcafcf10	-0.02146104
71	0x3d13c9bc	0.03608106
72	0x3d310e3b	0.04322646
73	0xbd56b623	-0.052419793
74	0xbe0ae454	-0.13563663
75	0xbcf45416	-0.029825252
76	0x3df8aeba	0.121427014
77	0x3e15cd8b	0.1462919
78	0x3d05e45b	0.03268848
79	0x3c3633a5	0.011120711
80	0xbd587b59	-0.05285201
81	0xbe11f32d	-0.1425292
82	0xbcdc2189	-0.02687146
83	0xbca8cc8e	-0.020605352
84	0xbc02126a	-0.007938961
85	0xbb888fc0	-0.004167527
86	0x3d0520d0	0.032501996
87	0xbd0ac29e	-0.033877008
88	0xbdfe640e	-0.12421428
89	0xbdd19948	-0.10234314
90	0xbe8a0b80	-0.269619
91	0xbe6ba1b6	-0.23010907
92	0x3e4ccc2b	0.19999759
93	0xbd9f8db6	-0.07790701
94	0xbe02075d	-0.12698121
95	0xbc8ccc09	-0.017187135
96	0x3dec28e8	0.1153124
97	0x3dd1346e	0.10215078
98	0xbd8efdd6	-0.06982009
99	0x3d25727f	0.040392395
100	0xbc1e0235	-0.009644081
101	0xbccafdfd	-0.024779314
102	0x3e1bdd93	0.15221243
103	0x3c6ff4ee	0.014645798
104	0xbe0f5ce1	-0.14000274
105	0x3d842043	0.06451466
106	0x3da09723	0.07841327
107	0x3d4556ed	0.048178602
108	0xbd3ea1d8	-0.046541065
109	0x3e3de1e1	0.18543197
110	0xbc4262f8	-0.011864416
111	0xbe2dca15	-0.1697162
112	0x3e470c56	0.194383
113	0xbd3d04d5	-0.046147186
114	0x3ce64b61	0.028112115
115	0x3d2573c2	0.0403936
116	0xbc46b002	-0.0121269245
117	0xbe2c0c8f	-0.16801666
118	0xbdf728cc	-0.12068328
119	0x3d36d1c6	0.04463365
120	0xbe232f8e	-0.1593611
121	0xbcc12061	-0.02357501
122	0xbdc74236	-0.097294256
123	0x3d05c949	0.032662664
124	0xbd50fe15	-0.05102356
125	0x3d2a52c5	0.04158284
126	0x3da3e276	0.08002178
127	0xbb00a304	-0.0019628415
128	0xbe8980d6	-0.26856107
129	0x3d8a1446	0.06742148
130	0xbdc8b451	-0.098000176
131	0xbbed226e	-0.0072367704
132	0xbdcb388a	-0.09922893
133	0xbca73b42	-0.020413999
134	0xbd0d05a9	-0.034429226
135	0xbe29acd3	-0.16569833
136	0xbd9c502b	-0.07632478
137	0x3d876fce	0.06613122
138	0x3db451ea	0.08804686
139	0xbd2c7fb4	-0.042113975
140	0x3e6f282f	0.23355173
141	0xbc936937	-0.017994506
142	0xbe843c53	-0.25827274
143	0xbe58327b	-0.21113007
144	0x3cf6f881	0.030147793
145	0x3d23cb1d	0.039988626
146	0x3d37ceb0	0.044874847
147	0x3d85605a	0.06512518
148	0xbdb4aab6	-0.08821623
149	0xbd0fc4b7	-0.03509971
150	0x3d5fd8b7	0.054650035
151	0x3c3b0534	0.011414815
152	0x3c7f8ef0	0.015598044
153	0xbd1c5d55	-0.038174946
154	0xbe27589b	-0.16342394
155	0x3e046965	0.1293083
156	0x3d952597	0.0728256
157	0x3ca131a5	0.019676993
158	0xbd268393	-0.040652823
159	0xbb75bac0	-0.0037495345
160	0xbdfe8681	-0.12427998
161	0x3d8e7c7b	0.069573365
162	0x3df845a0	0.12122655
163	0x3d357181	0.0442977
164	0xb9632174	-0.00021660869
165	0x3d92ff4b	0.071775995
166	0xbe8eff92	-0.2792936
167	0x3e065d5d	0.13121553
168	0x3d8255b8	0.06364006
169	0xbe3e2a86	-0.18570909
170	0xbd92f013	-0.07174697
171	0xbe0bc0e0	-0.13647795
172	0x3c83d3d2	0.016092215
173	0x3dda6449	0.10663659
174	0x3d52fa80	0.051508427
175	0xbb3892ab	-0.0028163593
176	0xbd3ac5f0	-0.045598924
177	0x3d55fa76	0.05224081
178	0xbd8d556e	-0.0690106
179	0x3c02afbc	0.007976469
180	0x3dc0766e	0.09397589
181	0x3e2364bf	0.159564
182	0x3e080272	0.13282183
183	0xbdc15d1d	-0.09441588
184	0x3e0a665d	0.13515611
185	0xbe212bf7	-0.15739428
186	0x3d9de643	0.077099346
187	0x3d9f69bd	0.0778384
188	0x3da36b41	0.079794414
189	0xbafbc659	-0.0019208892
190	0xbe4bd417	-0.19905125
191	0x3cce92b9	0.025216447
192	0xbe1b3659	-0.1515745
193	0xbe548f64	-0.20757824
194	0x3e7b70cf	0.24554752
195	0x3e14f721	0.14547397
196	0xbe3f36a4	-0.18673187
197	0x3c3cad58	0.011515938
198	0xbd338c23	-0.043834817
199	0x3e969ad7	0.29415008
200	0x3d5081bd	0.050904978
201	0x3e034490	0.12819123
202	0x3c91c191	0.017792495
203	0xbd9f6bb7	-0.07784217
204	0x3e1247a6	0.14285144
205	0x3d9a4124	0.07531956
206	0xbd875800	-0.066085815
207	0x3d400c26	0.046886586
208	0xbe26474d	-0.16238137
209	0xbdba13b0	-0.09085786
210	0x3e44b332	0.19208983
211	0x3dde23a5	0.108466424
212	0xbd4ac57a	-0.049504735
213	0xbc86c348	-0.01645054
214	0xbc96cc45	-0.01840795
215	0x3c0800cc	0.008300971
216	0x3e16acde	0.14714381
217	0xbbee8381	-0.00727886
218	0xbc1638ef	-0.009168847
219	0x3dfab532	0.122415915
220	0xbc9efa16	-0.01940636
221	0x3d3365cd	0.043798257
222	0x3e2e7ae7	0.17039071
223	0xbd8a199e	-0.06743167
224	0xbead8bc1	-0.33895686
225	0xbcbe1f8e	-0.023208406
226	0xbe51c3d0	-0.20484853
227	0xbe586b13	-0.21134596
228	0x3e436370	0.19080901
229	0x3e0f62d1	0.14002539
230	0xbe1b1ac5	-0.1514693
231	0x3da134c6	0.07871394
232	0x3e5acdaa	0.21367517
233	0xbdc99491	-0.0984279
234	0x3e6d94a2	0.2320123
235	0xbdf7bc93	-0.120965146
236	0x3d86c001	0.065795906
237	0xbc4553cf	-0.012043907
238	0xbe2b8d34	-0.16753083
239	0x3dc3a1ce	0.09552346
240	0xbd3d96d6	-0.046286426
241	0x3c963779	0.018336998
242	0xbe158471	-0.14601304
243	0x39ec5c24	0.00045082078
244	0xbe081861	-0.1329055
245	0xbe165689	-0.14681448
246	0x3e1485e2	0.14504197
247	0xbe9416ae	-0.28923553
248	0xbe2c13be	-0.16804406
249	0x3b4080ea	0.0029373714
250	0xbe560d38	-0.2090348
251	0xbddd7f6e	-0.10815321
252	0xbdffa179	-0.1248197
253	0x3e256eea	0.16155592
254	0x3dffd5d3	0.124919556
255	0x3dcf7dc8	0.10131413

sequential_525/2HiddenLayer_96Neurons/MatMul f4 [96, 352]
0	0x3c4a8b95	0.0123623805
1	0x3d58a706	0.05289366
2	0x3cf99534	0.030466653
3	0xbe82779d	-0.25481883
4	0xbdb1505f	-0.08657908
5	0x3cad3f2a	0.021148283
6	0x3dc472c5	0.09592203
7	0x3e1754a6	0.14778385
8	0xbe05ea6b	-0.13077705
9	0x3e0cfc3b	0.13768093
10	0x3c9ee8ed	0.019398177
11	0x3de48689	0.11158473
12	0x3e3c089e	0.18362662
13	0xbdf5fcb5	-0.12011091
14	0xbdb811e5	-0.08987788
15	0xbd33fc1a	-0.043941595
16	0x3c6e3af1	0.01454042
17	0xbda1dd32	-0.07903518
18	0xbdc6a40e	-0.0969926
19	0x3d3cea81	0.046122078
20	0xbd7a6bed	-0.061138082
21	0xbd88f03f	-0.06686448
22	0x3d673103	0.056443226
23	0xbdf5509f	-0.11978268
24	0x3dd8f8b6	0.10594313
25	0xbc35f8c0	-0.01110667
26	0xbba24268	-0.004951764
27	0xbc803456	-0.015649956
28	0xbe0aa262	-0.13538507
29	0x3dd7f71d	0.1054518
30	0xbda890fa	-0.08230777
31	0xbd12ff84	-0.03588821
32	0x3dc0cb13	0.09413733
33	0xbc686949	-0.014185258
34	0x3cbb0233	0.022828197
35	0xbdde916d	-0.108675815
36	0xbcfadbde	-0.030622419
37	0x3dec335c	0.115332335
38	0x3e3d6318	0.18494833
39	0xbde1b65d	-0.11021111
40	0xbd0b9964	-0.03408183
41	0x3d7b362d	0.061330963
42	0x3d402d5e	0.046918266
43	0x3e224e89	0.15850271
44	0xbd0fbba0	-0.035091043
45	0x3cf77065	0.030204961
46	0xbd7a2df6	-0.061078988
47	0xbd7fa354	-0.06241162
48	0x3cecac28	0.028890684
49	0x3c91103e	0.01770794
50	0xbe4fe3db	-0.20301764
51	0x3de9c3d1	0.11414302
52	0xbe28b7b0	-0.16476321
53	0x3bd4674d	0.006482041
54	0xbe49fe98	-0.19726026
55	0x3e2e2981	0.1700802
56	0xbcbe722a	-0.023247797
57	0x3dc8d72d	0.098066665
58	0xbd8bd3b2	-0.06827487
59	0x3e326b7b	0.17423813
60	0x3d0ec4df	0.03485572
61	0x3e22a80b	0.15884416
62	0x3e3a1711	0.18172862
63	0xbdaf9710	-0.08573735
64	0xbd64771c	-0.055777654
65	0x3d4f33e7	0.050586607
66	0x3d82f048	0.06393486
67	0xbd109e76	-0.03530737
68	0x3ce84763	0.028354352
69	0x3dbd54dd	0.09244702
70	0xbdc781c1	-0.097415455
71	0xbe80ea1c	-0.2517861
72	0xbe49b550	-0.19698071
73	0x3d66856a	0.056279577
74	0xbb91eaed	-0.004453054
75	0xbda2b52b	-0.07944711
76	0xbe2f1ed7	-0.17101608
77	0xbd4bb736	-0.04973527
78	0x3dd209a0	0.10255742
79	0x3cad17eb	0.021129569
80	0xbccf1744	-0.025279649
81	0x3dc833fb	0.097755395
82	0xbc4a1cad	-0.012335938
83	0xbd90f75c	-0.0707843
84	0xbccd7ec6	-0.025084864
85	0xbbe89a67	-0.0070984843
86	0xbe0daa7f	-0.1383457
87	0x3e02948f	0.12751983
88	0x3d918336	0.071051046
89	0xbd835ea4	-0.06414536
90	0xbc41d277	-0.011829964
91	0x3d252d1b	0.04032622
92	0xbc0d3ce6	-0.008620476
93	0x3dcdd6ec	0.10050759
94	0xbd019d06	-0.03164389
95	0x3cda2cfe	0.026632782
96	0x3c8560cb	0.016281506
97	0x3daec462	0.08533551
98	0x3e3e4d2d	0.18584128
99	0xbd66b44f	-0.0563243
100	0x3d9dd60f	0.07706844
101	0x3d0da52b	0.034581345
102	0x3e1dfd1d	0.15428586
103	0xbe0e9729	-0.1392485
104	0x3e0e72e1	0.1391101
105	0x3d889b17	0.06670206
106	0xbe0dd359	-0.13850154
107	0x3b3e482d	0.002903472
108	0x3e4cfed9	0.20019092
109	0xb993bad0	-0.0002817721
110	0x3e1b95c0	0.15193844
111	0x3d6dd0aa	0.058060326
112	0xbe414232	-0.18872908
113	0x3c0c8f0b	0.008579026
114	0x3cc0f991	0.023556503
115	0x3d8ad6d0	0.067792535
116	0x3e7d23b6	0.24720654
117	0x3e09b8d5	0.13449414
118	0x3c641b84	0.013922576
119	0xbc98aa2c	-0.018635832
120	0xbd9d078d	-0.07667456
121	0x3db12a1d	0.086506106
122	0xbe1f3dcb	-0.15550916
123	0xbe492b81	-0.19645502
124	0xbc4f706a	-0.012661079
125	0xbc9f1d3c	-0.01942312
126	0x3d260608	0.040533096
127	0x3d81762f	0.0632137
128	0xbe63ea0a	-0.22257248
129	0xbd9b66fc	-0.07588002
130	0xbdb28489	-0.08716685
131	0xbd8acd1f	-0.06777405
132	0x3e09d638	0.13460624
133	0xbe41f111	-0.18939616
134	0x3cc72fc2	0.024314765
135	0xbd6ffa29	-0.05858818
136	0x3e6027b8	0.21890152
137	0x3d9fd30a	0.078039244
138	0x3b2b6cea	0.0026157447
139	0xbba16d6a	-0.0049263733
140	0x3dc4f49e	0.096169695
141	0x3ca7e270	0.020493716
142	0xbe007aa8	-0.1254679
143	0xbe1bb490	-0.15205598
144	0xbe1e12a2	-0.15436795
145	0x395e83f0	0.0002122072
146	0x3db0e1c6	0.08636813
147	0xbca9994b	-0.020702979
148	0x3e16002e	0.14648506
149	0xbdf5a273	-0.11993875
150	0xbdcef87a	-0.10105987
151	0xbdc2d259	-0.09512777
152	0x3c777d2b	0.015105526
153	0xbd16a14f	-0.03677493
154	0xbe4f117e	-0.20221516
155	0x3dfe55ee	0.124187335
156	0x3d9735d2	0.07383312
157	0xbe29fa0e	-0.16599295
158	0xbcd1ce43	-0.025611049
159	0x3d785db9	0.060636256
160	0xbda8db0d	-0.082449056
161	0x3d2b566e	0.041830473
162	0x3d08b405	0.033374805
163	0x3bd4604d	0.0064812065
164	0x3be26e0a	0.0069100903
165	0xbe1a93e3	-0.15095477
166	0x3d1889dd	0.03724085
167	0x3db4f7a8	0.08836299
168	0x3cf6abe3	0.030111259
169	0x3df74ec3	0.120755695
170	0xbe1bc356	-0.15211233
171	0x3e4131b6	0.1886662
172	0xbe347193	-0.1762145
173	0xbd932889	-0.07185466
174	0xbe08f78e	-0.13375685
175	0xbb55e744	-0.0032639066
176	0x3d011cb0	0.0315215
177	0x3dd11f7c	0.10211083
178	0x3dd19836	0.1023411
179	0x3d09dfc3	0.03366066
180	0xbd4c5ed9	-0.04989514
181	0x3c549f7a	0.012977475
182	0xbdbaa7ac	-0.09114012
183	0xbdb09839	-0.08622784
184	0x3e6766ec	0.22597855
185	0x3cccec27	0.02501495
186	0xbe16ecec	-0.14738816
187	0xbe02ac3a	-0.12761012
188	0xbe62811b	-0.22119562
189	0xbc9427c8	-0.018085375
190	0x3df4e5f1	0.1195792
191	0x3cefa85c	0.029255085
192	0x3e226c21	0.1586156
193	0xbd382609	-0.04495815
194	0x3e42e4fb	0.19032662
195	0x3c89d6bf	0.016826032
196	0x3d091b27	0.03347316
197	0x3d8bd0c6	0.0682693
198	0xbdc566a1	-0.096387155
199	0xbe5754b4	-0.21028405
200	0xbe884329	-0.2661374
201	0x3e0639f9	0.13108052
202	0xbd2214ac	-0.039570495
203	0xbcdc5b45	-0.02689899
204	0x3cf9ecc4	0.030508406
205	0x3d5eeca1	0.054424886
206	0xbe02def4	-0.12780362
207	0xbce04603	-0.027377134
208	0xbd9a3460	-0.07529521
209	0x3c867d5e	0.016417202
210	0xbdfa62f5	-0.12225906
211	0xbd95057b	-0.07276436
212	0x3e0dbc8c	0.13841456
213	0xbe585763	-0.21127085
214	0x3d0384e3	0.032109153
215	0x3de5f7eb	0.11228927
216	0xbdaca370	-0.08429611
217	0xbd55b67b	-0.05217598
218	0x3e2abd15	0.16673692
219	0x3dbc6fc5	0.09201006
220	0xbd380ee7	-0.044936087
221	0xbbd3d572	-0.0064646536
222	0x3d8e6d30	0.069544196
223	0x3c91c2be	0.017793056
224	0xbe132b0b	-0.14371888
225	0x3dab38f6	0.08360474
226	0x3cd41649	0.025889533
227	0x3b7aa56b	0.003824557
228	0xbe16db8c	-0.14732188
229	0x3d9320ab	0.07183965
230	0x3e1a0233	0.15039901
231	0x3e09cb57	0.13456474
232	0xbbece9da	-0.0072300257
233	0x3e279cec	0.16368455
234	0xbd0eb73a	-0.034842707
235	0x3e241733	0.16024475
236	0x3d791b80	0.06081724
237	0x3dc598ac	0.096482605
238	0xbd145721	-0.036215905
239	0x3dfd787f	0.123764984
240	0x3d86b908	0.06578261
241	0x3d0b506a	0.034012236
242	0x3d51ca61	0.051218394
243	0xbe0c8863	-0.13723902
244	0xbd0076fd	-0.031363476
245	0xbd030c42	-0.03199411
246	0x3daef8cf	0.0854355
247	0xbba6d2ef	-0.005091063
248	0x3d3cb4f9	0.046071026
249	0xbdcf22b6	-0.101140425
250	0x3bbb538e	0.0057167476
251	0x3d9ad310	0.07559788
252	0xbe35162d	-0.1768424
253	0xbce7ae7c	-0.028281443
254	0xbab70472	-0.0013963117
255	0x3e49746d	0.19673319

sequential_525/OutputLayer/MatMul f4 [7, 96]
0	0x3e03d172	0.12872866
1	0x3e130245	0.14356335
2	0xbea38216	-0.31935185
3	0x3e919fdf	0.28442284
4	0xbe851992	-0.2599607
5	0x3e60031a	0.21876183
6	0xbe55d9b5	-0.2088383
7	0xbe7e0b2b	-0.24808948
8	0xbeac4a61	-0.33650497
9	0x3c79233a	0.015206153
10	0x3e2ec8f0	0.17068839
11	0xbda6598d	-0.08122549
12	0xbe444832	-0.19168165
13	0xbda0ff2c	-0.0786117
14	0xbd8c8d05	-0.06862835
15	0x3e11a271	0.14222123
16	0x3db9a863	0.0906532
17	0x3cddfd55	0.027098337
18	0xbdf9185d	-0.1216285
19	0x3e528b72	0.20561007
20	0x3e0b65ba	0.13613024
21	0xbe88cff9	-0.2672117
22	0xbe9ac8da	-0.30231363
23	0x3db707b5	0.08937017
24	0x3d6138ef	0.054985937
25	0x3d8c5259	0.06851644
26	0x3e97769f	0.29582688
27	0x3e2b9bd6	0.16758665
28	0x3f00e131	0.50343615
29	0xbebfc2fb	-0.37453446
30	0xbc32ad37	-0.010905555
31	0xbe93a053	-0.28833255
32	0xbe5d9d44	-0.21642023
33	0x3e7628b8	0.2403897
34	0x39f58e64	0.0004683613
35	0xbc0f88c8	-0.008760639
36	0xbdbf30f0	-0.09335506
37	0x3e761e82	0.24035075
38	0x3e6dbad6	0.23215804
39	0x3e6a1168	0.22858202
40	0xbe53de45	-0.20690258
41	0xbe9e4d3d	-0.30918303
42	0xbdf707bd	-0.12062023
43	0x3dff2f82	0.12460233
44	0x3b363ef3	0.0027808517
45	0xbe610705	-0.21975334
46	0xbd12ab60	-0.035807967
47	0x3dd0a2f9	0.101873346
48	0xbf01cddd	-0.5070475
49	0x3c886586	0.016649973
50	0x3e8e0201	0.27735904
51	0xbd8662c6	-0.06561808
52	0xbe624b55	-0.2209905
53	0x3e11f398	0.1425308
54	0xbed33699	-0.41252592
55	0xbe0b779b	-0.13619845
56	0xbb9e7b73	-0.0048364936
57	0xbd178ef9	-0.037001584
58	0x3a2d7fb6	0.00066184567
59	0x3d370170	0.044679105
60	0x3d958799	0.07301254
61	0xbddf8820	-0.10914636
62	0xbe5c58ea	-0.21518293
63	0x3de10b92	0.10988535
64	0xbe960035	-0.29297033
65	0xbdca46a3	-0.09876754
66	0xbe3218c8	-0.17392266
67	0xbedfabe2	-0.43685824
68	0xbe59e253	-0.21277742
69	0x3f01d3d4	0.5071385
70	0xbeb30405	-0.34964004
71	0x3e02246d	0.12709208
72	0xbdcaaee0	-0.09896636
73	0xbe34d033	-0.17657547
74	0x3d2445e3	0.04010571
75	0xbe52e295	-0.20594247
76	0xbd58a58d	-0.052892257
77	0x3e0ba52a	0.13637224
78	0x3dd12345	0.10211805
79	0x3e269c0f	0.16270469
80	0xbe8ac57e	-0.271038
81	0xbe6c6449	-0.23085131
82	0x3e095dfb	0.13414757
83	0x3ddf720f	0.10910427
84	0xbd89621e	-0.067081675
85	0xbebacbfc	-0.36483753
86	0x3f061bb7	0.5238604
87	0xbeb8edcf	-0.36118934
88	0xbe6141d4	-0.21997768
89	0x3d76d1c1	0.06025863
90	0x3e3f9159	0.1870779
91	0x3d9d18be	0.07670735
92	0x3de5933e	0.11209725
93	0x3e4096f1	0.1880758
94	0xbdb4c73a	-0.08827062
95	0xbe05d133	-0.13068084
96	0xbe126795	-0.14297326
97	0x3dd77933	0.10521164
98	0xbf0520f0	-0.52003384
99	0xbe98c24d	-0.2983574
100	0xbeee8272	-0.46583897
101	0xbedb1c3a	-0.42794973
102	0x3e30ad20	0.17253542
103	0x3eea2ebd	0.45738783
104	0x3c68d6ab	0.014211337
105	0x3db5e1db	0.08880969
106	0xbf09757e	-0.53694904
107	0x3ed9deb4	0.42552722
108	0x3ed4ccf5	0.4156262
109	0xbe99c996	-0.3003661
110	0xbef676f5	-0.48137632
111	0xbd4444e9	-0.04791728
112	0xbcf9d2fd	-0.030496115
113	0x3e729e35	0.23693164
114	0x3e7c0618	0.246117
115	0xbeee7e51	-0.46580747
116	0xbe319918	-0.17343557
117	0xbf331b43	-0.69963473
118	0x3d4ca550	0.04996234
119	0x3edbba5f	0.42915627
120	0xbf288674	-0.6583016
121	0x3e7c4e45	0.24639232
122	0x3eed8352	0.46389252
123	0x3f2d9e05	0.67819244
124	0x3ec2a1dc	0.38014114
125	0xbe892769	-0.2678788
126	0x3e5b9299	0.21442641
127	0xbf39cfbd	-0.7258261
128	0x3d990c69	0.0747307
129	0x3db7bff2	0.089721575
130	0xbeb8116c	-0.35950792
131	0x3eb15d5c	0.3464154
132	0xbf2919ad	-0.66054803
133	0xbe4271fe	-0.18988797
134	0xbd474f81	-0.048659805
135	0x3e20ff3a	0.15722361
136	0xbe67ed94	-0.22649223
137	0xbd37f048	-0.044906884
138	0xbe95b1e9	-0.29237297
139	0xbdb0eb75	-0.0863866
140	0x3e7da598	0.247702
141	0xbeddeb29	-0.43343475
142	0xbe5c29e9	-0.21500362
143	0xbf09e8b1	-0.53870684
144	0x3cd26492	0.025682721
145	0xbd5b6572	-0.053563543
146	0xbed1789d	-0.40912333
147	0x3eb62c81	0.3558083
148	0xbd82bc7f	-0.06383609
149	0xbd8480e2	-0.06469895
150	0x3d086a2e	0.033304386
151	0xbebe2298	-0.37135768
152	0x3c24b5bc	0.0100530945
153	0xbf2f9b8e	-0.6859673
154	0xbe6bddd2	-0.23033836
155	0x3e6294af	0.22127031
156	0xbcfbe800	-0.030750275
157	0x3ee45070	0.4459262
158	0x3ef75c56	0.48312634
159	0xbeeae46a	-0.4587739
160	0x3d05ef73	0.03269906
161	0x3e6ae721	0.22939731
162	0x3d346924	0.044045582
163	0xbe83fea4	-0.25780213
164	0xbe49ffb6	-0.19726452
165	0x3f18b978	0.59658
166	0x3f161209	0.5862127
167	0xbe6bbf63	-0.23022227
168	0xbd35d8d3	-0.044396233
169	0xbed58056	-0.41699475
170	0xbe42039c	-0.1894669
171	0x3e084742	0.13308433
172	0xbee82942	-0.45343977
173	0x3ee45de7	0.44602892
174	0xbeabc64d	-0.3354973
175	0x3d143169	0.036179934
176	0xbea50a6e	-0.3223452
177	0xbde0e247	-0.10980659
178	0xbe825c8c	-0.25461233
179	0xbf0c2fb0	-0.54760265
180	0xbc296c8a	-0.010340819
181	0xbd1e1d55	-0.038602192
182	0x3e9a6dc6	0.30161875
183	0xbf42b3e8	-0.76055765
184	0xbeb158f9	-0.34638193
185	0xbf2b0fad	-0.66820794
186	0xbe8f3d68	-0.27976537
187	0xbee3eaaa	-0.44514972
188	0xbf037f98	-0.5136657
189	0xbe6b037e	-0.22950551
190	0xbd0ce272	-0.034395643
191	0xbe1261a1	-0.14295055
192	0xbd943b1d	-0.072378375
193	0x3ed68570	0.4189868
194	0xbd9824af	-0.07428872
195	0xbe2ae4d4	-0.16688854
196	0x3e5323c3	0.20619111
197	0xbec7e2e8	-0.39040303
198	0x3dd24e33	0.102688216
199	0x3df80afe	0.121114716
200	0x3d1362f9	0.03598306
201	0xbe4ee832	-0.20205763
202	0xbe87a8bf	-0.2649593
203	0xbd4b0ccc	-0.04957275
204	0x3ecca3ea	0.39968807
205	0x3debfdd6	0.11523025
206	0x3d85cab9	0.06532807
207	0xbec80dad	-0.39072934
208	0x3f0580da	0.52149737
209	0x3effbab7	0.4994714
210	0xbed9e0e6	-0.42554396
211	0x3e194303	0.14966969
212	0xbf4c2203	-0.797394
213	0xbe315d9f	-0.1732087
214	0xbddaf32a	-0.10690911
215	0xbe81c18e	-0.25342983
216	0x3c792893	0.015207428
217	0xbe4b0677	-0.19826685
218	0xbd919681	-0.071087845
219	0x3e51e025	0.2049566
220	0x3e106579	0.14101209
221	0xbd920298	-0.07129401
222	0xbd668881	-0.056282524
223	0xbdcf2ab9	-0.101155706
224	0xbe80ad92	-0.25132424
225	0xbe50741c	-0.20356792
226	0x3e568474	0.20948964
227	0x3de85cc4	0.11345819
228	0x3d001917	0.031273928
229	0x3e128c1c	0.1431126
230	0x3e816ce5	0.25278392
231	0x3de4eaba	0.11177583
232	0xbdd8b0c9	-0.10580594
233	0x3c9515bd	0.018198842
234	0x3e83a773	0.2571369
235	0x3de81c55	0.11333529
236	0xbd4ec1f8	-0.05047795
237	0xbe543b6a	-0.2072579
238	0x3dd9328e	0.10605346
239	0xbe9353af	-0.28774783
240	0xbe2c2065	-0.16809233
241	0xbe08460d	-0.13307972
242	0xbe31149f	-0.17293023
243	0xbe49ad24	-0.19694954
244	0x3d1f167a	0.038839795
245	0xbc77fd7c	-0.015136119
246	0xbe6a3dcc	-0.22875136
247	0x3e187402	0.14888003
248	0x3ec66624	0.38749802
249	0x3cf6c6cc	0.03012409
250	0x3d3cec51	0.046123806
251	0x3dc0d46f	0.094155185
252	0x3de1f96e	0.11033903
253	0x3e969945	0.2941381
254	0x3e981092	0.29700142
255	0x3e347513	0.17622785
